model/model.onnx (onnx, 1463 bytes, 7 tensors)

features.weight f4 [4, 4]
0.13877077 0.14398742 -0.24745747 0.90956885 -0.81721133 0.051614203 -0.19175582 -0.5970421
-0.44355357 0.5155743 -0.34317753 -0.6339777 -0.21174654 0.7615652 0.049984127 -0.27361178
00000000: ed19 0e3e 7071 133e 7e65 7dbe 81d9 683f
00000010: c334 51bf 6a69 533d a35b 44be c0d7 18bf
00000020: 7419 e3be adfc 033f f7b4 afbe 5d4c 22bf
00000030: 16d4 58be f0f5 423f 28bc 4c3d d816 8cbe

features.bias f4 [4]
0.22447158 0.44973752 -0.46378762 -0.35114318
00000000: e1db 653e ff43 e63e 9275 edbe 0ac9 b3be

hidden.0.weight f4 [5, 4]
0.0994514 -0.95314926 0.55571216 -0.30890322 -0.73761153 0.52363855 -0.47897226 0.5847591
0.8300322 0.042461835 -0.5460433 -0.071165174 0.81713074 0.07204511 -0.28029078 0.55810225
-0.07997633 -0.5643482 0.0160644 -0.64060307
00000000: 2dad cb3d 9701 74bf 2743 0e3f 9028 9ebe
00000010: 1cd4 3cbf 2d0d 063f da3b f5be c6b2 153f
00000020: fe7c 543f 76ec 2d3d 7ec9 0bbf 0cbf 91bd
00000030: 7b2f 513f 638c 933d 4682 8fbe cadf 0e3f
00000040: a1ca a3bd 2079 10bf 7d99 833c 90fe 23bf

hidden.0.bias f4 [5]
-0.45061862 -0.14601979 0.4581264 -0.41806754 -0.14629377
00000000: 7cb7 e6be 3686 15be 8b8f ea3e f30c d6be
00000010: 09ce 15be

hidden.2.weight f4 [5, 5]
0.4662416 -0.46048492 -0.49931926 0.87609833 0.5437125 1.0305158 -0.4002916 -0.31906226
0.92936164 -0.050778206 -0.32957664 -0.08790396 0.67491573 -0.30081135 0.08679543 -0.39668876
0.12366283 1.0924295 -0.4177355 -0.94977456 -0.50731725 -0.34487516 0.4489925 -0.1884545
-0.20172964
00000000: 38b7 ee3e aec4 ebbe c6a6 ffbe fb47 603f
00000010: be30 0b3f f1e7 833f 05f3 ccbe 215c a3be
00000020: a5ea 6d3f cffc 4fbd 45be a8be fe06 b4bd
00000030: 47c7 2c3f f203 9abe cdc1 b13d ca1a cbbe
00000040: f042 fd3d bbd4 8b3f 6de1 d5be 6d24 73bf
00000050: 8bdf 01bf 7a93 b0be 58e2 e53e 37fa 40be
00000060: 3792 4ebe

hidden.2.bias f4 [5]
-0.4082233 -0.29521063 0.42236272 0.37608317 0.5139524
00000000: a502 d1be d925 97be ed3f d83e f98d c03e
00000010: 6292 033f

fc.weight f4 [1, 5]
-0.873375 -1.0577487 0.7653173 0.94174457 0.6267373
00000000: 8195 5fbf 4f64 87bf d6eb 433f 2c16 713f
00000010: db71 203f
